#loc = loc("/root/triton-runner/triton_issue/high_usage#7268/test/flash_attn_triton_test.py":319:0)
#loc42 = loc("/root/triton-runner/triton_issue/high_usage#7268/test/flash_attn_triton_test.py":43:0)
module {
  tt.func public @_bwd_kernel(%arg0: !tt.ptr<bf16> {tt.divisibility = 16 : i32} loc("/root/triton-runner/triton_issue/high_usage#7268/test/flash_attn_triton_test.py":319:0), %arg1: !tt.ptr<bf16> {tt.divisibility = 16 : i32} loc("/root/triton-runner/triton_issue/high_usage#7268/test/flash_attn_triton_test.py":319:0), %arg2: !tt.ptr<bf16> {tt.divisibility = 16 : i32} loc("/root/triton-runner/triton_issue/high_usage#7268/test/flash_attn_triton_test.py":319:0), %arg3: !tt.ptr<bf16> {tt.divisibility = 16 : i32} loc("/root/triton-runner/triton_issue/high_usage#7268/test/flash_attn_triton_test.py":319:0), %arg4: !tt.ptr<f32> {tt.divisibility = 16 : i32} loc("/root/triton-runner/triton_issue/high_usage#7268/test/flash_attn_triton_test.py":319:0), %arg5: !tt.ptr<bf16> {tt.divisibility = 16 : i32} loc("/root/triton-runner/triton_issue/high_usage#7268/test/flash_attn_triton_test.py":319:0), %arg6: !tt.ptr<bf16> {tt.divisibility = 16 : i32} loc("/root/triton-runner/triton_issue/high_usage#7268/test/flash_attn_triton_test.py":319:0), %arg7: !tt.ptr<f32> {tt.divisibility = 16 : i32} loc("/root/triton-runner/triton_issue/high_usage#7268/test/flash_attn_triton_test.py":319:0), %arg8: !tt.ptr<f32> {tt.divisibility = 16 : i32} loc("/root/triton-runner/triton_issue/high_usage#7268/test/flash_attn_triton_test.py":319:0), %arg9: f32 loc("/root/triton-runner/triton_issue/high_usage#7268/test/flash_attn_triton_test.py":319:0), %arg10: i32 {tt.divisibility = 16 : i32} loc("/root/triton-runner/triton_issue/high_usage#7268/test/flash_attn_triton_test.py":319:0), %arg11: i32 {tt.divisibility = 16 : i32} loc("/root/triton-runner/triton_issue/high_usage#7268/test/flash_attn_triton_test.py":319:0), %arg12: i32 {tt.divisibility = 16 : i32} loc("/root/triton-runner/triton_issue/high_usage#7268/test/flash_attn_triton_test.py":319:0), %arg13: i32 {tt.divisibility = 16 : i32} loc("/root/triton-runner/triton_issue/high_usage#7268/test/flash_attn_triton_test.py":319:0), %arg14: i32 {tt.divisibility = 16 : i32} loc("/root/triton-runner/triton_issue/high_usage#7268/test/flash_attn_triton_test.py":319:0), %arg15: i32 {tt.divisibility = 16 : i32} loc("/root/triton-runner/triton_issue/high_usage#7268/test/flash_attn_triton_test.py":319:0), %arg16: i32 {tt.divisibility = 16 : i32} loc("/root/triton-runner/triton_issue/high_usage#7268/test/flash_attn_triton_test.py":319:0), %arg17: i32 {tt.divisibility = 16 : i32} loc("/root/triton-runner/triton_issue/high_usage#7268/test/flash_attn_triton_test.py":319:0), %arg18: i32 {tt.divisibility = 16 : i32} loc("/root/triton-runner/triton_issue/high_usage#7268/test/flash_attn_triton_test.py":319:0), %arg19: i32 {tt.divisibility = 16 : i32} loc("/root/triton-runner/triton_issue/high_usage#7268/test/flash_attn_triton_test.py":319:0), %arg20: i32 {tt.divisibility = 16 : i32} loc("/root/triton-runner/triton_issue/high_usage#7268/test/flash_attn_triton_test.py":319:0), %arg21: i32 {tt.divisibility = 16 : i32} loc("/root/triton-runner/triton_issue/high_usage#7268/test/flash_attn_triton_test.py":319:0), %arg22: i32 {tt.divisibility = 16 : i32} loc("/root/triton-runner/triton_issue/high_usage#7268/test/flash_attn_triton_test.py":319:0), %arg23: i32 {tt.divisibility = 16 : i32} loc("/root/triton-runner/triton_issue/high_usage#7268/test/flash_attn_triton_test.py":319:0), %arg24: i32 {tt.divisibility = 16 : i32} loc("/root/triton-runner/triton_issue/high_usage#7268/test/flash_attn_triton_test.py":319:0), %arg25: i32 {tt.divisibility = 16 : i32} loc("/root/triton-runner/triton_issue/high_usage#7268/test/flash_attn_triton_test.py":319:0), %arg26: i32 {tt.divisibility = 16 : i32} loc("/root/triton-runner/triton_issue/high_usage#7268/test/flash_attn_triton_test.py":319:0), %arg27: i32 {tt.divisibility = 16 : i32} loc("/root/triton-runner/triton_issue/high_usage#7268/test/flash_attn_triton_test.py":319:0), %arg28: i32 {tt.divisibility = 16 : i32} loc("/root/triton-runner/triton_issue/high_usage#7268/test/flash_attn_triton_test.py":319:0), %arg29: i32 {tt.divisibility = 16 : i32} loc("/root/triton-runner/triton_issue/high_usage#7268/test/flash_attn_triton_test.py":319:0), %arg30: i32 {tt.divisibility = 16 : i32} loc("/root/triton-runner/triton_issue/high_usage#7268/test/flash_attn_triton_test.py":319:0), %arg31: i32 {tt.divisibility = 16 : i32} loc("/root/triton-runner/triton_issue/high_usage#7268/test/flash_attn_triton_test.py":319:0), %arg32: i32 {tt.divisibility = 16 : i32} loc("/root/triton-runner/triton_issue/high_usage#7268/test/flash_attn_triton_test.py":319:0), %arg33: i32 {tt.divisibility = 16 : i32} loc("/root/triton-runner/triton_issue/high_usage#7268/test/flash_attn_triton_test.py":319:0), %arg34: i32 loc("/root/triton-runner/triton_issue/high_usage#7268/test/flash_attn_triton_test.py":319:0), %arg35: i32 {tt.divisibility = 16 : i32} loc("/root/triton-runner/triton_issue/high_usage#7268/test/flash_attn_triton_test.py":319:0), %arg36: i32 {tt.divisibility = 16 : i32} loc("/root/triton-runner/triton_issue/high_usage#7268/test/flash_attn_triton_test.py":319:0), %arg37: i32 {tt.divisibility = 16 : i32} loc("/root/triton-runner/triton_issue/high_usage#7268/test/flash_attn_triton_test.py":319:0), %arg38: i32 {tt.divisibility = 16 : i32} loc("/root/triton-runner/triton_issue/high_usage#7268/test/flash_attn_triton_test.py":319:0), %arg39: i32 {tt.divisibility = 16 : i32} loc("/root/triton-runner/triton_issue/high_usage#7268/test/flash_attn_triton_test.py":319:0), %arg40: i32 {tt.divisibility = 16 : i32} loc("/root/triton-runner/triton_issue/high_usage#7268/test/flash_attn_triton_test.py":319:0)) attributes {noinline = false} {
    %c127_i32 = arith.constant 127 : i32 loc(#loc1)
    %c128_i32 = arith.constant 128 : i32 loc(#loc1)
    %c1_i32 = arith.constant 1 : i32 loc(#loc1)
    %c0_i32 = arith.constant 0 : i32 loc(#loc1)
    %0 = tt.get_program_id y : i32 loc(#loc2)
    %1 = arith.divsi %0, %arg34 : i32 loc(#loc3)
    %2 = arith.remsi %0, %arg34 : i32 loc(#loc4)
    %3 = arith.muli %1, %arg10 : i32 loc(#loc5)
    %4 = arith.muli %2, %arg11 : i32 loc(#loc6)
    %5 = arith.addi %3, %4 : i32 loc(#loc7)
    %6 = tt.addptr %arg0, %5 : !tt.ptr<bf16>, i32 loc(#loc8)
    %7 = arith.muli %1, %arg13 : i32 loc(#loc9)
    %8 = arith.muli %2, %arg14 : i32 loc(#loc10)
    %9 = arith.addi %7, %8 : i32 loc(#loc11)
    %10 = tt.addptr %arg1, %9 : !tt.ptr<bf16>, i32 loc(#loc12)
    %11 = arith.muli %1, %arg16 : i32 loc(#loc13)
    %12 = arith.muli %2, %arg17 : i32 loc(#loc14)
    %13 = arith.addi %11, %12 : i32 loc(#loc15)
    %14 = tt.addptr %arg2, %13 : !tt.ptr<bf16>, i32 loc(#loc16)
    %15 = arith.muli %1, %arg22 : i32 loc(#loc17)
    %16 = arith.muli %2, %arg23 : i32 loc(#loc18)
    %17 = arith.addi %15, %16 : i32 loc(#loc19)
    %18 = tt.addptr %arg3, %17 : !tt.ptr<bf16>, i32 loc(#loc20)
    %19 = arith.muli %1, %arg25 : i32 loc(#loc21)
    %20 = arith.muli %2, %arg26 : i32 loc(#loc22)
    %21 = arith.addi %19, %20 : i32 loc(#loc23)
    %22 = tt.addptr %arg4, %21 : !tt.ptr<f32>, i32 loc(#loc24)
    %23 = arith.muli %1, %arg28 : i32 loc(#loc25)
    %24 = arith.muli %2, %arg29 : i32 loc(#loc26)
    %25 = arith.addi %23, %24 : i32 loc(#loc27)
    %26 = tt.addptr %arg5, %25 : !tt.ptr<bf16>, i32 loc(#loc28)
    %27 = arith.muli %1, %arg31 : i32 loc(#loc29)
    %28 = arith.muli %2, %arg32 : i32 loc(#loc30)
    %29 = arith.addi %27, %28 : i32 loc(#loc31)
    %30 = tt.addptr %arg6, %29 : !tt.ptr<bf16>, i32 loc(#loc32)
    %31 = arith.muli %0, %arg37 : i32 loc(#loc33)
    %32 = tt.addptr %arg8, %31 : !tt.ptr<f32>, i32 loc(#loc34)
    %33 = tt.addptr %arg7, %31 : !tt.ptr<f32>, i32 loc(#loc35)
    %34 = arith.addi %arg36, %c127_i32 : i32 loc(#loc136)
    %35 = arith.divsi %34, %c128_i32 : i32 loc(#loc137)
    scf.for %arg41 = %c0_i32 to %35 step %c1_i32  : i32 {
      tt.call @_bwd_kernel_one_col_block__i32_Pbf16_Pbf16_Pbf16_Pbf16_Pfp32_Pbf16_Pbf16_Pfp32_Pfp32_fp32_i32_i32_i32_i32_i32_i32_i32_i32_i32_i32_i32__4cconstexpr_None__23cconstexpr_False__24cconstexpr_none__25cconstexpr_False__26cconstexpr_64__27cconstexpr_False__28cconstexpr_False__29cconstexpr_True__30cconstexpr_128__31cconstexpr_128_(%arg41, %6, %10, %14, %18, %22, %26, %30, %33, %32, %arg9, %arg12, %arg15, %arg18, %arg21, %arg24, %arg27, %arg30, %arg33, %arg35, %arg36, %arg38) : (i32, !tt.ptr<bf16>, !tt.ptr<bf16>, !tt.ptr<bf16>, !tt.ptr<bf16>, !tt.ptr<f32>, !tt.ptr<bf16>, !tt.ptr<bf16>, !tt.ptr<f32>, !tt.ptr<f32>, f32, i32, i32, i32, i32, i32, i32, i32, i32, i32, i32, i32) -> () loc(#loc40)
    } loc(#loc39)
    tt.return loc(#loc41)
  } loc(#loc)
  tt.func private @_bwd_kernel_one_col_block__i32_Pbf16_Pbf16_Pbf16_Pbf16_Pfp32_Pbf16_Pbf16_Pfp32_Pfp32_fp32_i32_i32_i32_i32_i32_i32_i32_i32_i32_i32_i32__4cconstexpr_None__23cconstexpr_False__24cconstexpr_none__25cconstexpr_False__26cconstexpr_64__27cconstexpr_False__28cconstexpr_False__29cconstexpr_True__30cconstexpr_128__31cconstexpr_128_(%arg0: i32 loc("/root/triton-runner/triton_issue/high_usage#7268/test/flash_attn_triton_test.py":43:0), %arg1: !tt.ptr<bf16> loc("/root/triton-runner/triton_issue/high_usage#7268/test/flash_attn_triton_test.py":43:0), %arg2: !tt.ptr<bf16> loc("/root/triton-runner/triton_issue/high_usage#7268/test/flash_attn_triton_test.py":43:0), %arg3: !tt.ptr<bf16> loc("/root/triton-runner/triton_issue/high_usage#7268/test/flash_attn_triton_test.py":43:0), %arg4: !tt.ptr<bf16> loc("/root/triton-runner/triton_issue/high_usage#7268/test/flash_attn_triton_test.py":43:0), %arg5: !tt.ptr<f32> loc("/root/triton-runner/triton_issue/high_usage#7268/test/flash_attn_triton_test.py":43:0), %arg6: !tt.ptr<bf16> loc("/root/triton-runner/triton_issue/high_usage#7268/test/flash_attn_triton_test.py":43:0), %arg7: !tt.ptr<bf16> loc("/root/triton-runner/triton_issue/high_usage#7268/test/flash_attn_triton_test.py":43:0), %arg8: !tt.ptr<f32> loc("/root/triton-runner/triton_issue/high_usage#7268/test/flash_attn_triton_test.py":43:0), %arg9: !tt.ptr<f32> loc("/root/triton-runner/triton_issue/high_usage#7268/test/flash_attn_triton_test.py":43:0), %arg10: f32 loc("/root/triton-runner/triton_issue/high_usage#7268/test/flash_attn_triton_test.py":43:0), %arg11: i32 loc("/root/triton-runner/triton_issue/high_usage#7268/test/flash_attn_triton_test.py":43:0), %arg12: i32 loc("/root/triton-runner/triton_issue/high_usage#7268/test/flash_attn_triton_test.py":43:0), %arg13: i32 loc("/root/triton-runner/triton_issue/high_usage#7268/test/flash_attn_triton_test.py":43:0), %arg14: i32 loc("/root/triton-runner/triton_issue/high_usage#7268/test/flash_attn_triton_test.py":43:0), %arg15: i32 loc("/root/triton-runner/triton_issue/high_usage#7268/test/flash_attn_triton_test.py":43:0), %arg16: i32 loc("/root/triton-runner/triton_issue/high_usage#7268/test/flash_attn_triton_test.py":43:0), %arg17: i32 loc("/root/triton-runner/triton_issue/high_usage#7268/test/flash_attn_triton_test.py":43:0), %arg18: i32 loc("/root/triton-runner/triton_issue/high_usage#7268/test/flash_attn_triton_test.py":43:0), %arg19: i32 loc("/root/triton-runner/triton_issue/high_usage#7268/test/flash_attn_triton_test.py":43:0), %arg20: i32 loc("/root/triton-runner/triton_issue/high_usage#7268/test/flash_attn_triton_test.py":43:0), %arg21: i32 loc("/root/triton-runner/triton_issue/high_usage#7268/test/flash_attn_triton_test.py":43:0)) attributes {noinline = false} {
    %c127_i32 = arith.constant 127 : i32 loc(#loc1)
    %cst = arith.constant dense<0.000000e+00> : tensor<128x64xbf16> loc(#loc1)
    %cst_0 = arith.constant dense<0xFF800000> : tensor<128x128xf32> loc(#loc1)
    %cst_1 = arith.constant dense<0.000000e+00> : tensor<128x128xf32> loc(#loc1)
    %cst_2 = arith.constant dense<0.000000e+00> : tensor<128x64xf32> loc(#loc1)
    %c128_i32 = arith.constant 128 : i32 loc(#loc1)
    %c0_i32 = arith.constant 0 : i32 loc(#loc1)
    %0 = tt.make_range {end = 128 : i32, start = 0 : i32} : tensor<128xi32> loc(#loc43)
    %1 = arith.muli %arg0, %c128_i32 : i32 loc(#loc44)
    %2 = tt.splat %1 : i32 -> tensor<128xi32> loc(#loc45)
    %3 = arith.addi %2, %0 : tensor<128xi32> loc(#loc45)
    %4 = tt.make_range {end = 64 : i32, start = 0 : i32} : tensor<64xi32> loc(#loc46)
    %5 = tt.expand_dims %0 {axis = 1 : i32} : tensor<128xi32> -> tensor<128x1xi32> loc(#loc47)
    %6 = tt.splat %arg11 : i32 -> tensor<128x1xi32> loc(#loc48)
    %7 = arith.muli %5, %6 : tensor<128x1xi32> loc(#loc48)
    %8 = tt.expand_dims %4 {axis = 0 : i32} : tensor<64xi32> -> tensor<1x64xi32> loc(#loc49)
    %9 = tt.broadcast %7 : tensor<128x1xi32> -> tensor<128x64xi32> loc(#loc50)
    %10 = tt.broadcast %8 : tensor<1x64xi32> -> tensor<128x64xi32> loc(#loc50)
    %11 = arith.addi %9, %10 : tensor<128x64xi32> loc(#loc50)
    %12 = tt.splat %arg1 : !tt.ptr<bf16> -> tensor<128x64x!tt.ptr<bf16>> loc(#loc51)
    %13 = tt.addptr %12, %11 : tensor<128x64x!tt.ptr<bf16>>, tensor<128x64xi32> loc(#loc51)
    %14 = tt.expand_dims %3 {axis = 1 : i32} : tensor<128xi32> -> tensor<128x1xi32> loc(#loc52)
    %15 = tt.splat %arg12 : i32 -> tensor<128x1xi32> loc(#loc53)
    %16 = arith.muli %14, %15 : tensor<128x1xi32> loc(#loc53)
    %17 = tt.broadcast %16 : tensor<128x1xi32> -> tensor<128x64xi32> loc(#loc54)
    %18 = arith.addi %17, %10 : tensor<128x64xi32> loc(#loc54)
    %19 = tt.splat %arg2 : !tt.ptr<bf16> -> tensor<128x64x!tt.ptr<bf16>> loc(#loc55)
    %20 = tt.addptr %19, %18 : tensor<128x64x!tt.ptr<bf16>>, tensor<128x64xi32> loc(#loc55)
    %21 = tt.splat %arg13 : i32 -> tensor<128x1xi32> loc(#loc56)
    %22 = arith.muli %14, %21 : tensor<128x1xi32> loc(#loc56)
    %23 = tt.broadcast %22 : tensor<128x1xi32> -> tensor<128x64xi32> loc(#loc57)
    %24 = arith.addi %23, %10 : tensor<128x64xi32> loc(#loc57)
    %25 = tt.splat %arg3 : !tt.ptr<bf16> -> tensor<128x64x!tt.ptr<bf16>> loc(#loc58)
    %26 = tt.addptr %25, %24 : tensor<128x64x!tt.ptr<bf16>>, tensor<128x64xi32> loc(#loc58)
    %27 = tt.splat %arg15 : i32 -> tensor<128x1xi32> loc(#loc59)
    %28 = arith.muli %5, %27 : tensor<128x1xi32> loc(#loc59)
    %29 = tt.broadcast %28 : tensor<128x1xi32> -> tensor<128x64xi32> loc(#loc60)
    %30 = arith.addi %29, %10 : tensor<128x64xi32> loc(#loc60)
    %31 = tt.splat %arg4 : !tt.ptr<bf16> -> tensor<128x64x!tt.ptr<bf16>> loc(#loc61)
    %32 = tt.addptr %31, %30 : tensor<128x64x!tt.ptr<bf16>>, tensor<128x64xi32> loc(#loc61)
    %33 = tt.splat %arg16 : i32 -> tensor<128x1xi32> loc(#loc62)
    %34 = arith.muli %5, %33 : tensor<128x1xi32> loc(#loc62)
    %35 = tt.broadcast %34 : tensor<128x1xi32> -> tensor<128x64xi32> loc(#loc63)
    %36 = arith.addi %35, %10 : tensor<128x64xi32> loc(#loc63)
    %37 = tt.splat %arg5 : !tt.ptr<f32> -> tensor<128x64x!tt.ptr<f32>> loc(#loc64)
    %38 = tt.addptr %37, %36 : tensor<128x64x!tt.ptr<f32>>, tensor<128x64xi32> loc(#loc64)
    %39 = arith.cmpi sle, %arg19, %c0_i32 : i32 loc(#loc65)
    cf.cond_br %39, ^bb1, ^bb2 loc(#loc65)
  ^bb1:  // pred: ^bb0
    %40 = tt.splat %arg18 : i32 -> tensor<128x1xi32> loc(#loc66)
    %41 = arith.muli %14, %40 : tensor<128x1xi32> loc(#loc66)
    %42 = tt.broadcast %41 : tensor<128x1xi32> -> tensor<128x64xi32> loc(#loc67)
    %43 = arith.addi %42, %10 : tensor<128x64xi32> loc(#loc67)
    %44 = tt.splat %arg7 : !tt.ptr<bf16> -> tensor<128x64x!tt.ptr<bf16>> loc(#loc68)
    %45 = tt.addptr %44, %43 : tensor<128x64x!tt.ptr<bf16>>, tensor<128x64xi32> loc(#loc68)
    %46 = tt.splat %arg17 : i32 -> tensor<128x1xi32> loc(#loc69)
    %47 = arith.muli %14, %46 : tensor<128x1xi32> loc(#loc69)
    %48 = tt.broadcast %47 : tensor<128x1xi32> -> tensor<128x64xi32> loc(#loc70)
    %49 = arith.addi %48, %10 : tensor<128x64xi32> loc(#loc70)
    %50 = tt.splat %arg6 : !tt.ptr<bf16> -> tensor<128x64x!tt.ptr<bf16>> loc(#loc71)
    %51 = tt.addptr %50, %49 : tensor<128x64x!tt.ptr<bf16>>, tensor<128x64xi32> loc(#loc71)
    %52 = tt.splat %arg20 : i32 -> tensor<128x1xi32> loc(#loc138)
    %53 = arith.cmpi slt, %14, %52 : tensor<128x1xi32> loc(#loc138)
    %54 = tt.broadcast %53 : tensor<128x1xi1> -> tensor<128x64xi1> loc(#loc139)
    tt.store %45, %cst, %54 : tensor<128x64x!tt.ptr<bf16>> loc(#loc139)
    tt.store %51, %cst, %54 : tensor<128x64x!tt.ptr<bf16>> loc(#loc140)
    tt.return loc(#loc76)
  ^bb2:  // pred: ^bb0
    %55 = tt.splat %arg20 : i32 -> tensor<128x1xi32> loc(#loc77)
    %56 = arith.cmpi slt, %14, %55 : tensor<128x1xi32> loc(#loc77)
    %57 = tt.broadcast %56 : tensor<128x1xi1> -> tensor<128x64xi1> loc(#loc78)
    %58 = tt.load %20, %57, %cst : tensor<128x64x!tt.ptr<bf16>> loc(#loc78)
    %59 = tt.load %26, %57, %cst : tensor<128x64x!tt.ptr<bf16>> loc(#loc79)
    %60 = arith.addi %arg19, %c127_i32 : i32 loc(#loc141)
    %61 = arith.divsi %60, %c128_i32 : i32 loc(#loc142)
    %62 = arith.muli %61, %c128_i32 : i32 loc(#loc81)
    %63 = tt.splat %arg19 : i32 -> tensor<128x1xi32> loc(#loc82)
    %64 = tt.trans %58 {order = array<i32: 1, 0>} : tensor<128x64xbf16> -> tensor<64x128xbf16> loc(#loc83)
    %65 = tt.expand_dims %3 {axis = 0 : i32} : tensor<128xi32> -> tensor<1x128xi32> loc(#loc84)
    %66 = tt.splat %arg20 : i32 -> tensor<1x128xi32> loc(#loc85)
    %67 = arith.cmpi slt, %65, %66 : tensor<1x128xi32> loc(#loc85)
    %68 = tt.broadcast %67 : tensor<1x128xi1> -> tensor<128x128xi1> loc(#loc86)
    %69 = tt.splat %arg8 : !tt.ptr<f32> -> tensor<128x!tt.ptr<f32>> loc(#loc87)
    %70 = tt.splat %arg10 : f32 -> tensor<128x128xf32> loc(#loc88)
    %71 = tt.splat %arg21 : i32 -> tensor<1x64xi32> loc(#loc89)
    %72 = arith.cmpi slt, %8, %71 : tensor<1x64xi32> loc(#loc89)
    %73 = tt.broadcast %72 : tensor<1x64xi1> -> tensor<128x64xi1> loc(#loc90)
    %74 = tt.trans %59 {order = array<i32: 1, 0>} : tensor<128x64xbf16> -> tensor<64x128xbf16> loc(#loc91)
    %75 = tt.splat %arg9 : !tt.ptr<f32> -> tensor<128x!tt.ptr<f32>> loc(#loc92)
    %76 = arith.muli %arg16, %c128_i32 : i32 loc(#loc93)
    %77 = tt.splat %76 : i32 -> tensor<128x64xi32> loc(#loc94)
    %78 = arith.muli %arg11, %c128_i32 : i32 loc(#loc95)
    %79 = tt.splat %78 : i32 -> tensor<128x64xi32> loc(#loc96)
    %80 = arith.muli %arg15, %c128_i32 : i32 loc(#loc97)
    %81 = tt.splat %80 : i32 -> tensor<128x64xi32> loc(#loc98)
    %82:5 = scf.for %arg22 = %c0_i32 to %62 step %c128_i32 iter_args(%arg23 = %cst_2, %arg24 = %cst_2, %arg25 = %38, %arg26 = %13, %arg27 = %32) -> (tensor<128x64xf32>, tensor<128x64xf32>, tensor<128x64x!tt.ptr<f32>>, tensor<128x64x!tt.ptr<bf16>>, tensor<128x64x!tt.ptr<bf16>>)  : i32 {
      %97 = tt.splat %arg22 : i32 -> tensor<128xi32> loc(#loc100)
      %98 = arith.addi %97, %0 : tensor<128xi32> loc(#loc100)
      %99 = tt.expand_dims %98 {axis = 1 : i32} : tensor<128xi32> -> tensor<128x1xi32> loc(#loc101)
      %100 = arith.cmpi slt, %99, %63 : tensor<128x1xi32> loc(#loc82)
      %101 = tt.broadcast %100 : tensor<128x1xi1> -> tensor<128x64xi1> loc(#loc102)
      %102 = tt.load %arg26, %101, %cst : tensor<128x64x!tt.ptr<bf16>> loc(#loc102)
      %103 = tt.dot %102, %64, %cst_1, inputPrecision = tf32 : tensor<128x64xbf16> * tensor<64x128xbf16> -> tensor<128x128xf32> loc(#loc103)
      %104 = arith.select %68, %103, %cst_0 : tensor<128x128xi1>, tensor<128x128xf32> loc(#loc86)
      gpu.barrier loc(#loc104)
      %105 = tt.addptr %69, %98 : tensor<128x!tt.ptr<f32>>, tensor<128xi32> loc(#loc87)
      %106 = tt.load %105 : tensor<128x!tt.ptr<f32>> loc(#loc105)
      %107 = arith.mulf %104, %70 : tensor<128x128xf32> loc(#loc88)
      %108 = tt.expand_dims %106 {axis = 1 : i32} : tensor<128xf32> -> tensor<128x1xf32> loc(#loc106)
      %109 = tt.broadcast %108 : tensor<128x1xf32> -> tensor<128x128xf32> loc(#loc107)
      %110 = arith.subf %107, %109 : tensor<128x128xf32> loc(#loc107)
      %111 = math.exp %110 : tensor<128x128xf32> loc(#loc108)
      %112 = arith.andi %101, %73 : tensor<128x64xi1> loc(#loc90)
      %113 = tt.load %arg27, %112, %cst : tensor<128x64x!tt.ptr<bf16>> loc(#loc109)
      %114 = arith.truncf %111 : tensor<128x128xf32> to tensor<128x128xbf16> loc(#loc110)
      %115 = tt.trans %114 {order = array<i32: 1, 0>} : tensor<128x128xbf16> -> tensor<128x128xbf16> loc(#loc111)
      %116 = tt.dot %115, %113, %arg23, inputPrecision = tf32 : tensor<128x128xbf16> * tensor<128x64xbf16> -> tensor<128x64xf32> loc(#loc112)
      gpu.barrier loc(#loc113)
      %117 = tt.dot %113, %74, %cst_1, inputPrecision = tf32 : tensor<128x64xbf16> * tensor<64x128xbf16> -> tensor<128x128xf32> loc(#loc114)
      %118 = tt.addptr %75, %98 : tensor<128x!tt.ptr<f32>>, tensor<128xi32> loc(#loc92)
      %119 = tt.load %118 : tensor<128x!tt.ptr<f32>> loc(#loc115)
      %120 = tt.expand_dims %119 {axis = 1 : i32} : tensor<128xf32> -> tensor<128x1xf32> loc(#loc116)
      %121 = tt.broadcast %120 : tensor<128x1xf32> -> tensor<128x128xf32> loc(#loc117)
      %122 = arith.subf %117, %121 : tensor<128x128xf32> loc(#loc117)
      %123 = arith.mulf %111, %122 : tensor<128x128xf32> loc(#loc118)
      %124 = arith.mulf %123, %70 : tensor<128x128xf32> loc(#loc119)
      %125 = arith.truncf %124 : tensor<128x128xf32> to tensor<128x128xbf16> loc(#loc120)
      %126 = tt.trans %125 {order = array<i32: 1, 0>} : tensor<128x128xbf16> -> tensor<128x128xbf16> loc(#loc121)
      %127 = tt.dot %126, %102, %arg24, inputPrecision = tf32 : tensor<128x128xbf16> * tensor<128x64xbf16> -> tensor<128x64xf32> loc(#loc122)
      gpu.barrier loc(#loc123)
      %128 = tt.load %arg25, %101, %cst_2 evictionPolicy = evict_last : tensor<128x64x!tt.ptr<f32>> loc(#loc124)
      %129 = tt.dot %125, %58, %128, inputPrecision = tf32 : tensor<128x128xbf16> * tensor<128x64xbf16> -> tensor<128x64xf32> loc(#loc125)
      tt.store %arg25, %129, %101 evictionPolicy = evict_last : tensor<128x64x!tt.ptr<f32>> loc(#loc126)
      %130 = tt.addptr %arg25, %77 : tensor<128x64x!tt.ptr<f32>>, tensor<128x64xi32> loc(#loc94)
      %131 = tt.addptr %arg26, %79 : tensor<128x64x!tt.ptr<bf16>>, tensor<128x64xi32> loc(#loc96)
      %132 = tt.addptr %arg27, %81 : tensor<128x64x!tt.ptr<bf16>>, tensor<128x64xi32> loc(#loc98)
      scf.yield %116, %127, %130, %131, %132 : tensor<128x64xf32>, tensor<128x64xf32>, tensor<128x64x!tt.ptr<f32>>, tensor<128x64x!tt.ptr<bf16>>, tensor<128x64x!tt.ptr<bf16>> loc(#loc127)
    } {tt.divisibility_arg1 = dense<128> : tensor<1xi32>} loc(#loc99)
    %83 = tt.splat %arg18 : i32 -> tensor<128x1xi32> loc(#loc128)
    %84 = arith.muli %14, %83 : tensor<128x1xi32> loc(#loc128)
    %85 = tt.broadcast %84 : tensor<128x1xi32> -> tensor<128x64xi32> loc(#loc129)
    %86 = arith.addi %85, %10 : tensor<128x64xi32> loc(#loc129)
    %87 = tt.splat %arg7 : !tt.ptr<bf16> -> tensor<128x64x!tt.ptr<bf16>> loc(#loc130)
    %88 = tt.addptr %87, %86 : tensor<128x64x!tt.ptr<bf16>>, tensor<128x64xi32> loc(#loc130)
    %89 = tt.splat %arg17 : i32 -> tensor<128x1xi32> loc(#loc131)
    %90 = arith.muli %14, %89 : tensor<128x1xi32> loc(#loc131)
    %91 = tt.broadcast %90 : tensor<128x1xi32> -> tensor<128x64xi32> loc(#loc132)
    %92 = arith.addi %91, %10 : tensor<128x64xi32> loc(#loc132)
    %93 = tt.splat %arg6 : !tt.ptr<bf16> -> tensor<128x64x!tt.ptr<bf16>> loc(#loc133)
    %94 = tt.addptr %93, %92 : tensor<128x64x!tt.ptr<bf16>>, tensor<128x64xi32> loc(#loc133)
    %95 = arith.truncf %82#0 : tensor<128x64xf32> to tensor<128x64xbf16> loc(#loc143)
    tt.store %88, %95, %57 : tensor<128x64x!tt.ptr<bf16>> loc(#loc143)
    %96 = arith.truncf %82#1 : tensor<128x64xf32> to tensor<128x64xbf16> loc(#loc144)
    tt.store %94, %96, %57 : tensor<128x64x!tt.ptr<bf16>> loc(#loc144)
    tt.return loc(#loc135)
  } loc(#loc42)
} loc(#loc)
#loc1 = loc(unknown)
#loc2 = loc("/root/triton-runner/triton_issue/high_usage#7268/test/flash_attn_triton_test.py":372:27)
#loc3 = loc("/root/triton-runner/triton_issue/high_usage#7268/test/flash_attn_triton_test.py":373:22)
#loc4 = loc("/root/triton-runner/triton_issue/high_usage#7268/test/flash_attn_triton_test.py":374:21)
#loc5 = loc("/root/triton-runner/triton_issue/high_usage#7268/test/flash_attn_triton_test.py":376:17)
#loc6 = loc("/root/triton-runner/triton_issue/high_usage#7268/test/flash_attn_triton_test.py":376:37)
#loc7 = loc("/root/triton-runner/triton_issue/high_usage#7268/test/flash_attn_triton_test.py":376:29)
#loc8 = loc("/root/triton-runner/triton_issue/high_usage#7268/test/flash_attn_triton_test.py":376:9)
#loc9 = loc("/root/triton-runner/triton_issue/high_usage#7268/test/flash_attn_triton_test.py":377:17)
#loc10 = loc("/root/triton-runner/triton_issue/high_usage#7268/test/flash_attn_triton_test.py":377:37)
#loc11 = loc("/root/triton-runner/triton_issue/high_usage#7268/test/flash_attn_triton_test.py":377:29)
#loc12 = loc("/root/triton-runner/triton_issue/high_usage#7268/test/flash_attn_triton_test.py":377:9)
#loc13 = loc("/root/triton-runner/triton_issue/high_usage#7268/test/flash_attn_triton_test.py":378:17)
#loc14 = loc("/root/triton-runner/triton_issue/high_usage#7268/test/flash_attn_triton_test.py":378:37)
#loc15 = loc("/root/triton-runner/triton_issue/high_usage#7268/test/flash_attn_triton_test.py":378:29)
#loc16 = loc("/root/triton-runner/triton_issue/high_usage#7268/test/flash_attn_triton_test.py":378:9)
#loc17 = loc("/root/triton-runner/triton_issue/high_usage#7268/test/flash_attn_triton_test.py":379:18)
#loc18 = loc("/root/triton-runner/triton_issue/high_usage#7268/test/flash_attn_triton_test.py":379:39)
#loc19 = loc("/root/triton-runner/triton_issue/high_usage#7268/test/flash_attn_triton_test.py":379:31)
#loc20 = loc("/root/triton-runner/triton_issue/high_usage#7268/test/flash_attn_triton_test.py":379:10)
#loc21 = loc("/root/triton-runner/triton_issue/high_usage#7268/test/flash_attn_triton_test.py":380:18)
#loc22 = loc("/root/triton-runner/triton_issue/high_usage#7268/test/flash_attn_triton_test.py":380:39)
#loc23 = loc("/root/triton-runner/triton_issue/high_usage#7268/test/flash_attn_triton_test.py":380:31)
#loc24 = loc("/root/triton-runner/triton_issue/high_usage#7268/test/flash_attn_triton_test.py":380:10)
#loc25 = loc("/root/triton-runner/triton_issue/high_usage#7268/test/flash_attn_triton_test.py":381:18)
#loc26 = loc("/root/triton-runner/triton_issue/high_usage#7268/test/flash_attn_triton_test.py":381:39)
#loc27 = loc("/root/triton-runner/triton_issue/high_usage#7268/test/flash_attn_triton_test.py":381:31)
#loc28 = loc("/root/triton-runner/triton_issue/high_usage#7268/test/flash_attn_triton_test.py":381:10)
#loc29 = loc("/root/triton-runner/triton_issue/high_usage#7268/test/flash_attn_triton_test.py":382:18)
#loc30 = loc("/root/triton-runner/triton_issue/high_usage#7268/test/flash_attn_triton_test.py":382:39)
#loc31 = loc("/root/triton-runner/triton_issue/high_usage#7268/test/flash_attn_triton_test.py":382:31)
#loc32 = loc("/root/triton-runner/triton_issue/high_usage#7268/test/flash_attn_triton_test.py":382:10)
#loc33 = loc("/root/triton-runner/triton_issue/high_usage#7268/test/flash_attn_triton_test.py":386:18)
#loc34 = loc("/root/triton-runner/triton_issue/high_usage#7268/test/flash_attn_triton_test.py":386:9)
#loc35 = loc("/root/triton-runner/triton_issue/high_usage#7268/test/flash_attn_triton_test.py":387:11)
#loc36 = loc("/root/miniconda3/lib/python3.12/site-packages/triton/language/standard.py":40:22)
#loc37 = loc("/root/triton-runner/triton_issue/high_usage#7268/test/flash_attn_triton_test.py":389:40)
#loc38 = loc("/root/miniconda3/lib/python3.12/site-packages/triton/language/standard.py":40:28)
#loc39 = loc("/root/triton-runner/triton_issue/high_usage#7268/test/flash_attn_triton_test.py":390:32)
#loc40 = loc("/root/triton-runner/triton_issue/high_usage#7268/test/flash_attn_triton_test.py":414:16)
#loc41 = loc("/root/triton-runner/triton_issue/high_usage#7268/test/flash_attn_triton_test.py":388:4)
#loc43 = loc("/root/triton-runner/triton_issue/high_usage#7268/test/flash_attn_triton_test.py":80:37)
#loc44 = loc("/root/triton-runner/triton_issue/high_usage#7268/test/flash_attn_triton_test.py":81:23)
#loc45 = loc("/root/triton-runner/triton_issue/high_usage#7268/test/flash_attn_triton_test.py":81:33)
#loc46 = loc("/root/triton-runner/triton_issue/high_usage#7268/test/flash_attn_triton_test.py":83:26)
#loc47 = loc("/root/triton-runner/triton_issue/high_usage#7268/test/flash_attn_triton_test.py":85:26)
#loc48 = loc("/root/triton-runner/triton_issue/high_usage#7268/test/flash_attn_triton_test.py":85:37)
#loc49 = loc("/root/triton-runner/triton_issue/high_usage#7268/test/flash_attn_triton_test.py":85:56)
#loc50 = loc("/root/triton-runner/triton_issue/high_usage#7268/test/flash_attn_triton_test.py":85:49)
#loc51 = loc("/root/triton-runner/triton_issue/high_usage#7268/test/flash_attn_triton_test.py":85:18)
#loc52 = loc("/root/triton-runner/triton_issue/high_usage#7268/test/flash_attn_triton_test.py":86:25)
#loc53 = loc("/root/triton-runner/triton_issue/high_usage#7268/test/flash_attn_triton_test.py":86:36)
#loc54 = loc("/root/triton-runner/triton_issue/high_usage#7268/test/flash_attn_triton_test.py":86:48)
#loc55 = loc("/root/triton-runner/triton_issue/high_usage#7268/test/flash_attn_triton_test.py":86:18)
#loc56 = loc("/root/triton-runner/triton_issue/high_usage#7268/test/flash_attn_triton_test.py":87:36)
#loc57 = loc("/root/triton-runner/triton_issue/high_usage#7268/test/flash_attn_triton_test.py":87:48)
#loc58 = loc("/root/triton-runner/triton_issue/high_usage#7268/test/flash_attn_triton_test.py":87:18)
#loc59 = loc("/root/triton-runner/triton_issue/high_usage#7268/test/flash_attn_triton_test.py":88:39)
#loc60 = loc("/root/triton-runner/triton_issue/high_usage#7268/test/flash_attn_triton_test.py":88:52)
#loc61 = loc("/root/triton-runner/triton_issue/high_usage#7268/test/flash_attn_triton_test.py":88:20)
#loc62 = loc("/root/triton-runner/triton_issue/high_usage#7268/test/flash_attn_triton_test.py":89:39)
#loc63 = loc("/root/triton-runner/triton_issue/high_usage#7268/test/flash_attn_triton_test.py":89:52)
#loc64 = loc("/root/triton-runner/triton_issue/high_usage#7268/test/flash_attn_triton_test.py":89:20)
#loc65 = loc("/root/triton-runner/triton_issue/high_usage#7268/test/flash_attn_triton_test.py":101:18)
#loc66 = loc("/root/triton-runner/triton_issue/high_usage#7268/test/flash_attn_triton_test.py":102:42)
#loc67 = loc("/root/triton-runner/triton_issue/high_usage#7268/test/flash_attn_triton_test.py":102:55)
#loc68 = loc("/root/triton-runner/triton_issue/high_usage#7268/test/flash_attn_triton_test.py":102:24)
#loc69 = loc("/root/triton-runner/triton_issue/high_usage#7268/test/flash_attn_triton_test.py":103:42)
#loc70 = loc("/root/triton-runner/triton_issue/high_usage#7268/test/flash_attn_triton_test.py":103:55)
#loc71 = loc("/root/triton-runner/triton_issue/high_usage#7268/test/flash_attn_triton_test.py":103:24)
#loc72 = loc("/root/triton-runner/triton_issue/high_usage#7268/test/flash_attn_triton_test.py":35:57)
#loc73 = loc("/root/triton-runner/triton_issue/high_usage#7268/test/flash_attn_triton_test.py":112:12)
#loc74 = loc("/root/triton-runner/triton_issue/high_usage#7268/test/flash_attn_triton_test.py":35:30)
#loc75 = loc("/root/triton-runner/triton_issue/high_usage#7268/test/flash_attn_triton_test.py":36:30)
#loc76 = loc("/root/triton-runner/triton_issue/high_usage#7268/test/flash_attn_triton_test.py":117:8)
#loc77 = loc("/root/triton-runner/triton_issue/high_usage#7268/test/flash_attn_triton_test.py":130:55)
#loc78 = loc("/root/triton-runner/triton_issue/high_usage#7268/test/flash_attn_triton_test.py":130:24)
#loc79 = loc("/root/triton-runner/triton_issue/high_usage#7268/test/flash_attn_triton_test.py":131:24)
#loc80 = loc("/root/triton-runner/triton_issue/high_usage#7268/test/flash_attn_triton_test.py":140:36)
#loc81 = loc("/root/triton-runner/triton_issue/high_usage#7268/test/flash_attn_triton_test.py":141:48)
#loc82 = loc("/root/triton-runner/triton_issue/high_usage#7268/test/flash_attn_triton_test.py":150:64)
#loc83 = loc("/root/triton-runner/triton_issue/high_usage#7268/test/flash_attn_triton_test.py":158:32)
#loc84 = loc("/root/triton-runner/triton_issue/high_usage#7268/test/flash_attn_triton_test.py":161:33)
#loc85 = loc("/root/triton-runner/triton_issue/high_usage#7268/test/flash_attn_triton_test.py":161:44)
#loc86 = loc("/root/triton-runner/triton_issue/high_usage#7268/test/flash_attn_triton_test.py":161:58)
#loc87 = loc("/root/triton-runner/triton_issue/high_usage#7268/test/flash_attn_triton_test.py":186:30)
#loc88 = loc("/root/triton-runner/triton_issue/high_usage#7268/test/flash_attn_triton_test.py":188:28)
#loc89 = loc("/root/triton-runner/triton_issue/high_usage#7268/test/flash_attn_triton_test.py":202:76)
#loc90 = loc("/root/triton-runner/triton_issue/high_usage#7268/test/flash_attn_triton_test.py":202:58)
#loc91 = loc("/root/triton-runner/triton_issue/high_usage#7268/test/flash_attn_triton_test.py":223:33)
#loc92 = loc("/root/triton-runner/triton_issue/high_usage#7268/test/flash_attn_triton_test.py":229:25)
#loc93 = loc("/root/triton-runner/triton_issue/high_usage#7268/test/flash_attn_triton_test.py":288:29)
#loc94 = loc("/root/triton-runner/triton_issue/high_usage#7268/test/flash_attn_triton_test.py":288:19)
#loc95 = loc("/root/triton-runner/triton_issue/high_usage#7268/test/flash_attn_triton_test.py":289:28)
#loc96 = loc("/root/triton-runner/triton_issue/high_usage#7268/test/flash_attn_triton_test.py":289:18)
#loc97 = loc("/root/triton-runner/triton_issue/high_usage#7268/test/flash_attn_triton_test.py":290:29)
#loc98 = loc("/root/triton-runner/triton_issue/high_usage#7268/test/flash_attn_triton_test.py":290:19)
#loc99 = loc("/root/triton-runner/triton_issue/high_usage#7268/test/flash_attn_triton_test.py":141:57)
#loc100 = loc("/root/triton-runner/triton_issue/high_usage#7268/test/flash_attn_triton_test.py":143:32)
#loc101 = loc("/root/triton-runner/triton_issue/high_usage#7268/test/flash_attn_triton_test.py":150:53)
#loc102 = loc("/root/triton-runner/triton_issue/high_usage#7268/test/flash_attn_triton_test.py":150:28)
#loc103 = loc("/root/triton-runner/triton_issue/high_usage#7268/test/flash_attn_triton_test.py":158:23)
#loc104 = loc("/root/triton-runner/triton_issue/high_usage#7268/test/flash_attn_triton_test.py":185:12)
#loc105 = loc("/root/triton-runner/triton_issue/high_usage#7268/test/flash_attn_triton_test.py":186:24)
#loc106 = loc("/root/triton-runner/triton_issue/high_usage#7268/test/flash_attn_triton_test.py":188:50)
#loc107 = loc("/root/triton-runner/triton_issue/high_usage#7268/test/flash_attn_triton_test.py":188:44)
#loc108 = loc("/root/triton-runner/triton_issue/high_usage#7268/test/flash_attn_triton_test.py":188:23)
#loc109 = loc("/root/triton-runner/triton_issue/high_usage#7268/test/flash_attn_triton_test.py":201:16)
#loc110 = loc("/root/triton-runner/triton_issue/high_usage#7268/test/flash_attn_triton_test.py":216:35)
#loc111 = loc("/root/triton-runner/triton_issue/high_usage#7268/test/flash_attn_triton_test.py":216:30)
#loc112 = loc("/root/triton-runner/triton_issue/high_usage#7268/test/flash_attn_triton_test.py":216:47)
#loc113 = loc("/root/triton-runner/triton_issue/high_usage#7268/test/flash_attn_triton_test.py":222:12)
#loc114 = loc("/root/triton-runner/triton_issue/high_usage#7268/test/flash_attn_triton_test.py":223:24)
#loc115 = loc("/root/triton-runner/triton_issue/high_usage#7268/test/flash_attn_triton_test.py":229:21)
#loc116 = loc("/root/triton-runner/triton_issue/high_usage#7268/test/flash_attn_triton_test.py":232:27)
#loc117 = loc("/root/triton-runner/triton_issue/high_usage#7268/test/flash_attn_triton_test.py":232:24)
#loc118 = loc("/root/triton-runner/triton_issue/high_usage#7268/test/flash_attn_triton_test.py":232:19)
#loc119 = loc("/root/triton-runner/triton_issue/high_usage#7268/test/flash_attn_triton_test.py":232:39)
#loc120 = loc("/root/triton-runner/triton_issue/high_usage#7268/test/flash_attn_triton_test.py":232:57)
#loc121 = loc("/root/triton-runner/triton_issue/high_usage#7268/test/flash_attn_triton_test.py":234:30)
#loc122 = loc("/root/triton-runner/triton_issue/high_usage#7268/test/flash_attn_triton_test.py":234:35)
#loc123 = loc("/root/triton-runner/triton_issue/high_usage#7268/test/flash_attn_triton_test.py":239:12)
#loc124 = loc("/root/triton-runner/triton_issue/high_usage#7268/test/flash_attn_triton_test.py":248:24)
#loc125 = loc("/root/triton-runner/triton_issue/high_usage#7268/test/flash_attn_triton_test.py":253:37)
#loc126 = loc("/root/triton-runner/triton_issue/high_usage#7268/test/flash_attn_triton_test.py":256:24)
#loc127 = loc("/root/triton-runner/triton_issue/high_usage#7268/test/flash_attn_triton_test.py":291:8)
#loc128 = loc("/root/triton-runner/triton_issue/high_usage#7268/test/flash_attn_triton_test.py":294:38)
#loc129 = loc("/root/triton-runner/triton_issue/high_usage#7268/test/flash_attn_triton_test.py":294:51)
#loc130 = loc("/root/triton-runner/triton_issue/high_usage#7268/test/flash_attn_triton_test.py":294:20)
#loc131 = loc("/root/triton-runner/triton_issue/high_usage#7268/test/flash_attn_triton_test.py":295:38)
#loc132 = loc("/root/triton-runner/triton_issue/high_usage#7268/test/flash_attn_triton_test.py":295:51)
#loc133 = loc("/root/triton-runner/triton_issue/high_usage#7268/test/flash_attn_triton_test.py":295:20)
#loc134 = loc("/root/triton-runner/triton_issue/high_usage#7268/test/flash_attn_triton_test.py":304:8)
#loc135 = loc("/root/triton-runner/triton_issue/high_usage#7268/test/flash_attn_triton_test.py":296:4)
#loc136 = loc(callsite(#loc36 at #loc37))
#loc137 = loc(callsite(#loc38 at #loc37))
#loc138 = loc(callsite(#loc72 at #loc73))
#loc139 = loc(callsite(#loc74 at #loc73))
#loc140 = loc(callsite(#loc75 at #loc73))
#loc141 = loc(callsite(#loc36 at #loc80))
#loc142 = loc(callsite(#loc38 at #loc80))
#loc143 = loc(callsite(#loc74 at #loc134))
#loc144 = loc(callsite(#loc75 at #loc134))
